generator.pth (torch, 593483 bytes, 25 tensors)

generator.0.weight f4 [100, 64, 4, 4]
0.0019263052 -0.0011410438 -0.00980076 -0.014206756 0.0019093609 -0.020283349 -0.007417643 0.0046795052
-0.018690566 -0.03661778 -0.02658965 0.010757926 -0.011485566 0.020991294 -0.00938308 0.010936429
0.019536674 0.020746682 0.009594367 0.02210347 0.010949772 -0.025749149 -0.01652494 0.004367387
0.001561265 -0.0026810162 0.07848779 -0.0010704085 -0.019607758 -0.036617827 -0.041367218 0.0021635846
0.013491168 0.021732273 -0.018786717 -0.007901051 -0.004381267 -0.021006817 -0.0029580474 0.0012038059
0.036345836 0.013575151 -0.00042534666 -0.03456135 -0.014572107 -0.001238621 -0.03260056 -0.0136568
0.0022636799 -0.01833725 -0.0019382806 0.0008519129 -0.0016140856 0.015744105 -0.0045678406 0.026221616
-0.024830261 0.030995563 -0.027111344 0.0067592324 0.011501273 0.039154217 0.0068660243 -0.0112569
0.024377482 0.014522737 -0.0057020523 0.0019518574 0.00079397747 -0.019252636 0.0015682309 0.001551379
-0.0010499243 -0.04050968 -0.008492208 -0.012630917 0.007848628 -0.0030329025 -0.013711192 0.001989542
0.0045882855 0.014313603 -0.020709522 -0.024491757 0.0014770628 -0.020305682 0.014229304 0.016948456
0.0054910607 0.08223828 -0.0126068415 -0.008811017 0.0051801936 -0.033266284 -0.029626861 0.0073967017
0.015526024 -0.0008843668 0.0062442455 0.004383129 0.029348794 -0.008767006 0.004538094 0.00024260064
0.018131074 -0.01837062 -0.14065273 -0.012228829 0.019766966 0.0153794335 0.027229393 0.0023277665
-0.0042293696 -6.99963e-05 0.01311393 -0.016023636 0.023897508 -0.01893826 0.013975891 0.012005151
0.021209735 -0.0064883074 -0.0018599776 -0.023936233 -0.023546094 0.013235279 -0.005666547 0.020935304
0.018010506 -0.017974962 0.00037858138 -0.015042705 -0.020493172 0.010879333 -0.021743868 0.0026532132
0.010104608 0.021505434 0.029163655 0.022794714 0.014520032 -0.012802384 -0.03567679 0.016278548
0.022826942 0.01740843 0.055088658 0.0069065103 0.019927973 0.012648151 -0.014282742 0.021668218
0.010181511 -0.017981993 -0.017957458 -0.00090560433 -0.010124938 -0.115349084 -0.024383878 -0.002401477
0.014703489 -0.0011683533 -0.007505862 -0.005076856 0.0052435426 -0.013808091 0.015027196 0.017883522
0.008142728 -0.025636382 -0.0055202288 -0.008419604 0.0054386724 0.015641548 -0.039603066 -0.0009395783
0.05723044 0.0137892235 -0.019401573 -0.01123715 -0.0026390546 -0.018529056 -0.03210409 -0.0031825993
-0.016382372 0.012870452 -0.03599634 -0.011334376 0.015185768 -0.0036854618 -0.014231748 0.0130617125
0.03780322 0.005305252 -0.0021284586 0.013012116 -0.01778704 0.011202015 -0.016430516 -0.022652237
0.00020490284 -0.006035682 -0.04333531 -0.0072602686 0.015643094 -0.037073065 0.017735628 0.016717529
0.0063337362 0.014644201 -0.016357774 -0.040895704 0.009293005 -0.067912586 -0.01354938 -0.012577656
0.0025933038 0.043354325 -0.028220013 0.017311968 0.010018832 0.029354488 -0.019525507 0.009153326
0.022486165 -0.008014232 -0.017666195 0.011434431 -0.01871124 -0.020602671 -0.008562888 0.009132005
0.005123017 0.02853186 -0.015098594 -0.01273258 -0.028372657 0.004613413 -0.040135633 -0.014850727
-0.01100863 -0.01881096 0.020144805 0.008123855 0.0394826 0.030244676 -0.014636442 -0.008094048
0.017315427 -0.022202026 0.032800395 -0.015931284 0.017476434 -0.012504946 -0.0124736 -0.010026635
00000000: 147c fc3a 148f 95ba 5e93 20bc 74c3 68bc
00000010: 8543 fa3a 4429 a6bc b30f f3bb 8956 993b
00000020: f51c 99bc 86fc 15bd 8ad2 d9bc 0342 303c
00000030: f52d 3cbc eff5 ab3c 7dbb 19bc b52e 333c
00000040: 600b a03c f2f4 a93c b131 1d3c 5612 b53c
00000050: ac66 333c e1ef d2bc 505f 87bc 4c1c 8f3b
00000060: 5ca3 cc3a fdb3 2fbb 35be a03d f34c 8cba
00000070: 73a0 a0bc 93fc 15bd ac70 29bd edca 0d3b
00000080: 0f0a 5d3c e107 b23c 9ae6 99bc 6973 01bc
00000090: bb90 8fbb 7d16 acbc cddb 41bb 06c9 9d3a
000000a0: 5fdf 143d 4f6a 5e3c 1001 dfb9 3490 0dbd
000000b0: d9bf 6ebc 3959 a2ba 2a88 05bd c5c0 5fbc
000000c0: 3f5a 143b 0038 96bc e80d feba e852 5f3a
000000d0: ba8f d3ba c8f9 803c d3ad 95bb b7ce d63c
000000e0: d568 cbbc 68ea fd3c 9c18 debc 8d7c dd3b
000000f0: d66f 3c3c 2c60 203d 63fc e03b dc6e 38bc
00000100: 49b3 c73c c6f0 6d3c 48d8 babb 77d5 ff3a
00000110: ed22 503a b4b7 9dbc 198d cd3a a457 cb3a
00000120: 9d9d 89ba 7aed 25bd e722 0bbc e8f1 4ebc
00000130: 8897 003c a9c3 46bb e8a4 60bc fa62 023b
00000140: 5459 963b 9a83 6a3c 04a7 a9bc f0a2 c8bc
00000150: 019a c13a 1a58 a6bc 0722 693c 7dd7 8a3c
00000160: 5bee b33b 8b6c a83d ed8c 4ebc 155c 10bc
00000170: 9dbe a93b 3a42 08bd 08b4 f2bc 0860 f23b
00000180: dd60 7e3c dad4 67ba 879c cc3b 5aa0 8f3b
00000190: e26c f03c 7da3 0fbc 4bb4 943b 9d62 7e39
000001a0: 9e87 943c fc7d 96bc 4507 10be 6d5b 48bc
000001b0: 55ee a13c 05fa 7b3c 2d10 df3c 718d 183b
000001c0: 8696 8abb faca 92b8 cfdb 563c 0044 83bc
000001d0: b5c4 c33c 6924 9bbc 23fb 643c 41b1 443c
000001e0: 0ac0 ad3c de9b d4bb 7eca f3ba eb15 c4bc
000001f0: bde3 c0bc c9d8 583c 71ae b9bb 8480 ab3c
00000200: c58a 933c 3a40 93bc 557c c639 ae75 76bc
00000210: 4ce1 a7bc 3b3f 323c 3220 b2bc 88e1 2d3b
00000220: cc8d 253c 2a2c b03c 9ee8 ee3c fbbb ba3c
00000230: 6ee5 6d3c 17c1 51bc d321 12bd 975a 853c
00000240: 91ff ba3c 209c 8e3c a5a4 613d 0250 e23b
00000250: fd3f a33c 313a 4f3c 2902 6abc 8c81 b13c
00000260: 5ad0 263c f94e 93bc 851b 93bc 1466 6dba
00000270: 11e3 25bc 243c ecbd b3c0 c7bc 1962 1dbb
00000280: e7e6 703c 6e23 99ba bcf3 f5bb c15b a6bb
00000290: 06d2 ab3b 553b 62bc a134 763c 7780 923c
000002a0: 1469 053c 6403 d2bc 09e3 b4bb 61f2 09bc
000002b0: e436 b23b b422 803c d336 22bd 084e 76ba
000002c0: 776a 6a3d 32ec 613c 0cf0 9ebc 061c 38bc
000002d0: fdf3 2cbb 3fca 97bc 947f 03bd 2893 50bb
000002e0: 5334 86bc 97de 523c e670 13bd d2b3 39bc
000002f0: bacd 783c ca87 71bb 472c 69bc cb00 563c
00000300: 8dd7 1a3d aed7 ad3b 9c7d 0bbb c530 553c
00000310: 20b6 91bc a888 373c 4a99 86bc 2f91 b9bc
00000320: 30db 5639 f8c6 c5bb 5e80 31bd 8ce7 edbb
00000330: f225 803c edd9 17bd 4f4a 913c 33f3 883c
00000340: 3b8b cf3b 3bee 6f3c bd00 86bc 4182 27bd
00000350: b041 183c c115 8bbd 38fe 5dbc 8312 4ebc
00000360: 6bf4 293b 4e94 313d a82d e7bc d4d1 8d3c
00000370: 0726 243c d378 f03c f5f3 9fbc d5f7 153c
00000380: e834 b83c 204e 03bc b2b8 90bc 7b57 3b3c
00000390: 5048 99bc efc6 a8bc 5b4b 0cbc 689e 153c
000003a0: fbde a73b a6bb e93c 1860 77bc 509c 50bc
000003b0: c66d e8bc 1d2c 973b 4365 24bd 7750 73bc
000003c0: 8a5d 34bc 7119 9abc b806 a53c eb19 053c
000003d0: 82b8 213d afc3 f73c b0cd 6fbc e69c 04bc
000003e0: 15d9 8d3c 06e1 b5bc b559 063d 5382 82bc
000003f0: bd2a 8f3c 8ce1 4cbc 125e 4cbc c146 24bc

generator.0.bias f4 [64]
0.029320398 0.0032615918 0.048026174 -0.022215014 -0.04179124 0.009957132 0.02131272 0.036540017
0.008134299 -0.07544018 0.0006079995 -0.03268114 0.014121039 -0.006113262 -0.0071320003 0.027351165
-0.004992683 0.02630015 0.023628818 0.027320795 -0.00087549497 -0.029142117 0.013942197 0.03664528
0.0032954342 -0.022072049 0.03413268 0.010527255 0.055507872 0.014564787 -0.0038620683 -0.011360764
-0.010232707 -0.02385012 0.0108008385 -0.014657977 0.027335914 0.018640477 0.02507011 -0.0014819629
-0.0062009636 -0.048135772 -0.005739649 0.018387342 -0.0628005 0.0035919356 -0.0029026938 -0.039692342
-0.0016677389 0.067105465 0.033783816 -0.019894294 0.00902368 0.0055424236 -0.049733546 -0.0010407029
0.010481843 -0.02511573 0.03887725 -0.004176839 -0.010984249 0.040109385 0.00039613742 0.039430026
00000000: 5531 f03c 6ec0 553b 18b7 443d 43fc b5bc
00000010: 4b2d 2bbd 3d23 233c 0398 ae3c fcaa 153d
00000020: b945 053c 6280 9abd 2862 1f3a a9dc 05bd
00000030: ee5b 673c c251 c8bb 8eb3 e9bb 8d0f e03c
00000040: a999 a3bb 6a73 d73c 3991 c13c dccf df3c
00000050: 7981 65ba 73bb eebc d06d 643c 5c19 163d
00000060: 36f8 573b 71d0 b4bc b6ce 0b3d 827a 2c3c
00000070: 395c 633d 25a1 6e3c c11a 7dbb 7f22 3abc
00000080: 15a7 27bc 5461 c3bc 00f6 303c 0328 70bc
00000090: 91ef df3c eab3 983c d55f cd3c 6c3e c2ba
000000a0: 7431 cbbb 042a 45bd aa13 bcbb 0da1 963c
000000b0: 8c9d 80bd ae66 6b3b 1f3b 3ebb 7094 22bd
000000c0: 0898 daba 976e 893d e660 0a3d 5cf9 a2bc
000000d0: 0fd8 133c 389d b53b 67b5 4bbd 3268 88ba
000000e0: 09bc 2b3c 81bf cdbc c03d 1f3d dddd 88bb
000000f0: 48f7 33bc bd49 243d aab0 cf39 6181 213d

generator.1.weight f4 [64]
0.9434987 0.83825713 0.88049376 0.9881686 0.8729183 0.7502554 0.9255399 0.83764225
0.97316736 0.7979093 0.8481664 0.62063646 0.6693616 0.7752289 0.97074986 1.2705144
0.81169665 0.7956221 0.8149804 0.75338644 0.9744068 0.8359297 0.78231084 0.7809363
1.2002062 0.97293836 0.8998371 0.78406423 0.7906045 0.9977263 1.0662204 0.821311
0.6848268 0.72922695 0.9212766 0.8766289 0.82844967 1.1615353 0.9378484 0.9903833
0.78693324 0.9198985 0.8482587 0.86283636 1.0312636 0.8180755 1.000267 0.8018811
0.8213539 1.1314274 1.045159 0.86056924 0.7809598 1.2381142 0.877565 1.0465966
1.1275519 0.78130805 0.75719345 1.0345831 0.6576572 0.7116292 0.7908978 1.008314
00000000: 2189 713f 0598 563f 0a68 613f 9ef8 7c3f
00000010: 9377 5f3f bd10 403f 2ff0 6c3f b96f 563f
00000020: 7f21 793f c943 4c3f 6f21 593f 08e2 1e3f
00000030: 485b 2b3f 6775 463f 1083 783f 37a0 a23f
00000040: 5acb 4f3f e4ad 4b3f 8ea2 503f efdd 403f
00000050: b972 793f 7dff 553f 8645 483f 71eb 473f
00000060: 5ba0 993f 7d12 793f b95b 663f 6fb8 483f
00000070: 0e65 4a3f fe6a 7f3f e979 883f 7041 523f
00000080: cf50 2f3f 9eae 3a3f c9d8 6b3f c06a 603f
00000090: 4715 543f 30ad 943f d516 703f c389 7d3f
000000a0: 7574 493f 787e 6b3f 7b27 593f d8e2 5c3f
000000b0: 7200 843f 656d 513f c008 803f 1448 4d3f
000000c0: 4044 523f 9dd2 903f c5c7 853f 444e 5c3f
000000d0: fbec 473f 877a 9e3f 1aa8 603f e1f6 853f
000000e0: 9f53 903f ce03 483f 6ed7 413f 386d 843f
000000f0: 395c 283f 552d 363f 4778 4a3f 6f10 813f

generator.1.bias f4 [64]
0.06032333 0.10668407 0.43834358 0.6354217 -0.04091644 0.06446411 0.15625037 0.20870778
0.4837926 0.1391397 0.0071635284 0.018434297 0.4112533 0.14352834 0.29541436 0.64691126
-0.021398716 -0.014153427 0.0116874045 0.65408844 0.36840203 0.48930854 0.7095321 0.046567973
0.56462693 0.12850758 0.19917779 0.25260937 -0.03977174 0.3487995 0.5779667 0.1837215
0.52413464 0.124448575 0.3543766 0.023987783 -0.026364807 0.1302915 0.53287065 0.51210725
0.55794615 0.050742634 0.42379194 0.00707609 0.5098752 -0.031800732 0.19125593 -0.03616392
0.37978727 0.62739855 0.5392715 -0.019509574 -0.030667458 0.6347353 0.28282556 0.45665774
0.6298154 -0.037118685 -0.052255675 0.48694164 0.044299576 -0.017850967 0.022435147 0.31607568
00000000: 9915 773d 2d7d da3d 926e e03e ffaa 223f
00000010: ff97 27bd c205 843d 1900 203e 7eb7 553e
00000020: aab3 f73e a37a 0e3e 08bc ea3b 8603 973c
00000030: cb8f d23e 18f9 123e 8d40 973e fa9b 253f
00000040: 5c4c afbc c7e3 67bc 877c 3f3c 5772 273f
00000050: 319f bc3e a686 fa3e e5a3 353f 0fbe 3e3d
00000060: 648b 103f 7e97 033e 43f5 4b3e 0456 813e
00000070: b1e7 22bd d995 b23e a0f5 133f 7d21 3c3e
00000080: b02d 063f e5de fe3d da70 b53e 0782 c43c
00000090: 02fb d7bc 236b 053e 366a 083f 7619 033f
000000a0: 8fd5 0e3f 82d7 4f3d 42fb d83e 8cde e73b
000000b0: 2e87 023f 7c41 02bd 98d8 433e 9e20 14bd
000000c0: 7a73 c23e 319d 203f b20d 0a3f 8bd2 9fbc
000000d0: 523a fbbc 037e 223f 83ce 903e 0bcf e93e
000000e0: 953b 213f c309 18bd 0c0a 56bd 6a50 f93e
000000f0: 7973 353d 313c 92bc eac9 b73c acd4 a13e

generator.1.running_mean f4 [64]
0.03244111 0.0031850624 0.04918013 -0.023395129 -0.03989087 0.008364024 0.021228904 0.03592194
0.008573019 -0.07710811 0.0014913718 -0.03135242 0.015060159 -0.007051748 -0.0048776325 0.02634368
-0.0057036052 0.027157707 0.02588753 0.027051203 0.0013170649 -0.026416048 0.013188753 0.041872893
0.0057172794 -0.02237142 0.035188384 0.010998434 0.059010096 0.014916746 -0.0052635046 -0.012365467
-0.012427458 -0.022088036 0.010274969 -0.014176721 0.02653258 0.02109601 0.022129105 -0.0022146655
-0.007848095 -0.046932325 -0.0033164837 0.018250493 -0.062444463 0.004214223 -0.0026222242 -0.03673323
-0.00053336384 0.064592175 0.034567185 -0.017473282 0.0075852526 0.0035937584 -0.04823804 -0.0025326118
0.010315534 -0.029469222 0.03668484 -0.0048974035 -0.010838305 0.040132977 0.00046846984 0.036023274
00000000: f8e0 043d 7bbc 503b 1b71 493d 24a7 bfbc
00000010: 9c64 23bd 4209 093c 3de8 ad3c e222 133d
00000020: d975 0c3c dbea 9dbd 227a c33a 656b 00bd
00000030: e3be 763c 5a12 e7bb 8cd4 9fbb b4ce d73c
00000040: 4fe5 babb d779 de3c 1612 d43c 7c9a dd3c
00000050: 5da1 ac3a 7866 d8bc a415 583c e982 2b3d
00000060: 0458 bb3b 4544 b7bc b221 103d c732 343c
00000070: 92b4 713d 5e65 743c 7a79 acbb 8798 4abc
00000080: 899c 4bbc f8f1 b4bc 5858 283c 7a45 68bc
00000090: da5a d93c 8ad1 ac3c 1948 b53c ec23 11bb
000000a0: 4c95 00bc 1c3c 40bd 5d59 59bb 0f82 953c
000000b0: c4c5 7fbd 7717 8a3b 9fd9 2bbb 9575 16bd
000000c0: 71d1 0bba e748 843d 5296 0d3d 2124 8fbc
000000d0: b68d f83b 4385 6b3b 4095 45bd 2dfa 25bb
000000e0: 7c02 293c 7069 f1bc d842 163d 667a a0bb
000000f0: 2593 31bc 7a62 243d f59c f539 248d 133d

generator.1.running_var f4 [64]
0.101506054 0.11414808 0.11340227 0.100171186 0.09994555 0.10552421 0.11221936 0.115608454
0.101682484 0.114217006 0.10155944 0.10070661 0.10903576 0.10590018 0.11087394 0.10248984
0.10728034 0.113470495 0.11685492 0.09338383 0.117322266 0.119146526 0.10475445 0.120040365
0.10064827 0.104489215 0.099148065 0.10162691 0.10231367 0.105971254 0.11421093 0.113320865
0.10059375 0.10619112 0.11388911 0.10557347 0.100128226 0.09855943 0.10258621 0.10785598
0.117115565 0.09926167 0.110691525 0.103286676 0.122656144 0.11093559 0.11321325 0.100314945
0.10994251 0.08739643 0.10324198 0.109481886 0.10698401 0.1073899 0.09162691 0.101728186
0.09290559 0.11355152 0.098722324 0.10369831 0.11715654 0.105882116 0.09667728 0.11038741
00000000: 68e2 cf3d 78c6 e93d 733f e83d 8d26 cd3d
00000010: 41b0 cc3d 141d d83d 44d3 e53d 20c4 ec3d
00000020: e83e d03d 9bea e93d 65fe cf3d 443f ce3d
00000030: 244e df3d 32e2 d83d e011 e33d 31e6 d13d
00000040: cbb5 db3d 3863 e83d a251 ef3d 0540 bf3d
00000050: a846 f03d 1803 f43d 8089 d63d b9d7 f53d
00000060: ae20 ce3d 71fe d53d 240e cb3d c521 d03d
00000070: d489 d13d 7507 d93d 6ce7 e93d c514 e83d
00000080: 1904 ce3d bb7a d93d b23e e93d e736 d83d
00000090: 0710 cd3d 87d9 c93d b818 d23d 99e3 dc3d
000000a0: 49da ef3d b449 cb3d 3db2 e23d f787 d33d
000000b0: 2533 fb3d 3332 e33d 59dc e73d ec71 cd3d
000000c0: 8a29 e13d e6fc b23d 8870 d33d 0a38 e03d
000000d0: 6f1a db3d 3cef db3d e4a6 bb3d de56 d03d
000000e0: 4945 be3d b38d e83d ee2e ca3d c85f d43d
000000f0: c5ef ef3d b9d8 d83d bdfe c53d cb12 e23d

generator.3.weight f4 [64, 32, 4, 4]
-0.0370668 0.02858022 0.017762482 -0.020865226 -0.054353055 -0.026219001 0.036733102 0.07382637
-0.024489975 -0.03512213 -0.0021495514 -0.007534642 -0.013325112 0.021850022 -0.003323338 0.034788717
0.05957634 0.05492494 0.04406405 0.037225477 -0.04294953 -0.050475292 -0.0025307646 -0.07975019
-0.04154862 0.01067273 0.019724736 -0.04431937 -0.064355314 -0.004075675 -0.026484838 0.07838757
-0.08275072 0.017874915 0.028870184 0.0036944808 0.008536742 0.01206708 0.0041123326 -0.010560413
-0.15514208 0.05606694 -0.04617139 -0.019791858 -0.04416535 0.028186515 -0.048639793 -0.07627613
-0.026094757 -0.01985473 -0.03843853 0.011268093 0.018764865 0.0042724125 0.008159789 0.042926125
-0.032294028 -0.0502353 -0.028483892 -0.053123206 -0.0050783646 -0.12702267 0.016967222 -0.027594658
-0.0049801595 0.028020266 -0.025547646 0.03046655 -0.019175366 0.049108338 0.03649444 0.023141483
-0.05560704 0.035202105 0.04379071 -0.014619522 -0.01030919 0.01333542 0.03079999 -0.01100953
-0.022528825 0.007063401 -0.039698005 0.008847546 0.044515863 0.01791543 0.007962211 -0.06972627
0.017812483 -0.010833078 -0.03529983 0.013469462 -0.01069496 -0.006172157 -0.03315546 -0.037692524
-0.013204894 -0.02680799 -0.028110825 -0.02193458 0.050044127 -0.04331894 0.029057346 0.019149343
0.0039323075 0.019194005 -0.049989514 0.02547585 -0.037388824 -0.009606019 0.026170539 0.008614318
0.010911819 0.05285937 -0.048549466 -0.019184342 -0.06327561 -0.05923472 0.03828182 0.0022864218
-0.049691208 -0.13869096 0.048192993 -0.037129957 -0.04553042 0.008072523 -0.054277766 0.0013111857
-0.014856706 -0.0579777 0.0064430158 -0.073076166 0.0054061585 0.021561362 0.03242871 -0.023093637
-0.04218685 0.021611191 -0.024351511 -0.033237964 -0.08028838 0.059601683 0.0032358484 -0.019462895
-0.028586052 -0.080216646 -0.034170546 0.0026546353 0.04812218 -0.012846564 -0.024798587 0.003196269
-0.049486417 0.028857747 -0.101005934 -0.019628374 -0.07173247 -0.02830708 -0.03793879 0.022225376
-0.02344116 -0.016212985 0.028812516 0.05352073 -0.09113155 -0.06396283 0.041625556 -0.06735539
-0.03274323 0.04397587 0.025715267 0.02095699 -0.016671428 -0.023604779 0.060661104 0.019732501
0.06968322 -0.06707024 0.0071121836 -0.020538226 -0.001016749 -0.0046611936 0.023692906 -0.058028635
0.08442634 -0.044966787 0.03871307 0.015362856 0.034202322 0.023673318 0.035175 0.022600234
-0.023154492 -0.09827872 -0.009037194 0.022109017 -0.0053667002 0.052815247 -0.01109394 -0.08403015
-0.010082329 0.003698572 0.014134031 -0.0098747015 0.0149503285 0.003998269 -0.037331585 -0.07451335
0.01925243 -0.032407634 0.05451429 -0.019416785 -0.034957036 -0.034123216 -0.029227179 -0.04219584
-0.035858527 -0.017451117 -0.0050312434 -0.028435204 0.04935826 0.0015729963 0.04656015 0.04341811
-0.11533417 -0.06647601 0.050386827 -0.029226081 0.021437002 -0.043565504 0.018448453 -0.022708183
-0.0667729 -0.051751904 0.048132878 0.0063008876 -0.020403573 0.007826904 0.019459689 -0.044780646
-0.034972128 0.029943876 0.0378576 0.00023752477 0.05381468 0.0091870595 0.0033074862 0.0013008218
-0.019842397 0.0045975535 0.019661816 -0.012893697 -0.030395512 0.011840495 -8.4310355e-05 0.036744975
00000000: 5bd3 17bd 1121 ea3c a082 913c 8ded aabc
00000010: 4fa1 5ebd 3bc9 d6bc 7375 163d 4832 973d
00000020: 339f c8bc 39dc 0fbd 7ddf 0cbb 28e5 f6bb
00000030: 9251 5abc d1fe b23c 5ccc 59bb 9d7e 0e3d
00000040: 5206 743d f9f8 603d 817c 343d be79 183d
00000050: d9eb 2fbd 2ebf 4ebd 2fdb 25bb 1154 a3bd
00000060: e32e 2abd addc 2e3c c595 a13c 3a88 35bd
00000070: b8cc 83bd 3d8d 85bb bbf6 d8bc aa89 a03d
00000080: 3679 a9bd 6a6e 923c 2a81 ec3c 1a1f 723b
00000090: b1dd 0b3c 00b5 453c bfc0 863b 9505 2dbc
000000a0: 91dd 1ebe 73a6 653d 361e 3dbd 8922 a2bc
000000b0: bae6 34bd 68e7 e63c 853a 47bd a936 9cbd
000000c0: acc4 d5bc 63a6 a2bc b871 1dbd cf9d 383c
000000d0: c6b8 993c 98ff 8b3b a3b0 053c 4ed3 2f3d
000000e0: be46 04bd 88c3 4dbd 0d57 e9bc b897 59bd
000000f0: 6968 a6bb 3b12 02be d8fe 8a3c 310e e2bc
00000100: 9b30 a3bb c28a e53c 4c49 d1bc fc94 f93c
00000110: a815 9dbc d325 493d 327b 153d 3593 bd3c
00000120: 35c4 63bd 1530 103d e35d 333d b886 6fbc
00000130: e0e7 28bc ce7c 5a3c 4350 fc3c 5161 34bc
00000140: 5f8e b8bc 1a74 e73b 609a 22bd 4cf5 103c
00000150: 4456 363d 61c3 923c ef73 023c a6cc 8ebd
00000160: 7ceb 913c 397d 31bc 8e96 10bd 05af 5c3c
00000170: ea39 2fbc ce3f cabb 05ce 07bd 7a63 1abd
00000180: 5759 58bc 6e9c dbbc ac48 e6bc 26b0 b3bc
00000190: 12fb 4c3d 336f 31bd ac09 ee3c 15df 9c3c
000001a0: 96da 803b bf3c 9d3c cec1 4cbd bbb2 d03c
000001b0: 0625 19bd 9062 1dbc 9963 d63c 1223 0d3c
000001c0: 7cc7 323c 1183 583d cedb 46bd 7b28 9dbc
000001d0: a596 81bd 1ba0 72bd 66cd 1c3d cbd7 153b
000001e0: 0289 4bbd 0105 0ebe 0466 453d 9515 18bd
000001f0: 1b7e 3abd 9e42 043c 5d52 5ebd 17dc ab3a
00000200: 8b69 73bc 067a 6dbd ef1f d33b f5a8 95bd
00000210: 2526 b13b 74a1 b03c f8d3 043d de2e bdbc
00000220: 1ecc 2cbd f409 b13c d27c c7bc 8824 08bd
00000230: 3c6e a4bd e520 743d 8710 543b a670 9fbc
00000240: 4c2d eabc a048 a4bd 6af6 0bbd 64f9 2d3b
00000250: c31b 453d 657a 52bc 6826 cbbc 7f78 513b
00000260: 45b2 4abd 1567 ec3c 33dc cebd afcb a0bc
00000270: 79e8 92bd 40e4 e7bc b465 1bbd fe11 b63c
00000280: ad07 c0bc 18d1 84bc 3a08 ec3c 8e38 5b3d
00000290: 2ea3 babd f2fe 82bd 8f7f 2a3d 9ff1 89bd
000002a0: c41d 06bd 0b20 343d d3a8 d23c fead ab3c
000002b0: 8592 88bc cf5e c1bc c777 783d 0ea6 a13c
000002c0: 13b6 8e3d 1f5c 89bd 520d e93b c83f a8bc
000002d0: 6f44 85ba edbc 98bb a017 c23c 6faf 6dbd
000002e0: b8e7 ac3d 182f 38bd 9991 1e3d 7db4 7b3c
000002f0: bc17 0c3d 8cee c13c a913 103d 2024 b93c
00000300: 7dae bdbc 5b46 c9bd bd10 14bc f81d b53c
00000310: 25db afbb cd54 583d 5bc3 35bc 0018 acbd
00000320: 5a30 25bc be63 723b 6c92 673c 80c9 21bc
00000330: 39f2 743c e903 833b 01e9 18bd 759a 98bd
00000340: 46b7 9d3c debd 04bd 604a 5f3d f30f 9fbc
00000350: 1c2f 0fbd c9c4 0bbd d66d efbc 8cd5 2cbd
00000360: 64e0 12bd a5f5 8ebc 21dd a4bb f2f0 e8bc
00000370: e32b 4a3d ff2c ce3a dbb5 3e3d 30d7 313d
00000380: 5234 ecbd 9324 88bd 6b62 4e3d 896b efbc
00000390: a79c af3c be71 32bd 3621 973c 8306 babc
000003a0: 3bc0 88bd cef9 53bd fb26 453d ad77 ce3b
000003b0: 6525 a7bc 6a3c 003c ed69 9f3c e96b 37bd
000003c0: ef3e 0fbd dc4c f53c 9210 1b3d 1210 7939
000003d0: c86c 5c3d 5285 163c 69c2 583b 5680 aa3a
000003e0: 868c a2bc 13a7 963b d111 a13c 1640 53bc
000003f0: 0200 f9bc a3fe 413c c7cf b0b8 e681 163d

generator.3.bias f4 [32]
0.02332664 -0.008517121 0.016187891 -0.0016162307 -0.028993934 0.0050189067 -0.016011924 -0.014161279
-0.0046286923 0.03821862 0.018399535 0.031763274 0.058106955 -0.0011111205 -0.01717074 0.016608816
0.0157607 -0.03021442 0.028200507 0.0040400643 -0.010955481 0.034052577 0.004943323 0.03731094
-0.0028287563 -0.013894919 -0.013559636 -0.062686995 0.040215652 -0.043307874 -0.019185523 -0.041628152
00000000: 8217 bf3c 658b 0bbc 789c 843c b4d7 d3ba
00000010: b084 edbc a475 a43b 702b 83bc b604 68bc
00000020: 49ac 97bb 218b 1c3d 9fba 963c 351a 023d
00000030: 8f01 6e3d 04a3 91ba a7a9 8cbc 360f 883c
00000040: 951c 813c 3b84 f7bc c004 e73c 8462 843b
00000050: 9e7e 33bc b77a 0b3d 99fb a13b 5bd3 183d
00000060: a862 39bb 84a7 63bc 3c29 5ebc 0a62 80bd
00000070: 2bb9 243d 9963 31bd f52a 9dbc 4882 2abd

generator.4.weight f4 [32]
1.009208 0.9314168 0.9704402 0.99582535 1.0010417 1.1718068 0.9759057 0.960854
1.1095387 0.9517712 1.0258961 1.0042515 1.0373676 0.9403129 1.0473729 0.93748707
0.94283295 1.0457103 1.0237243 0.93110806 0.98520267 0.99324757 0.9679351 1.0762488
0.9998159 1.0473908 0.91077137 0.94234604 1.0919944 1.0175442 0.94834286 1.0230778
00000000: ba2d 813f 5571 6e3f c56e 783f 69ee 7e3f
00000010: 2222 803f c4fd 953f f5d4 793f 87fa 753f
00000020: 5d05 8e3f 47a7 733f 9050 833f 508b 803f
00000030: 76c8 843f 59b8 703f 5110 863f 27ff 6f3f
00000040: 805d 713f d6d9 853f 6609 833f 195d 6e3f
00000050: 3e36 7c3f 7945 7e3f 98ca 773f 85c2 893f
00000060: eff3 7f3f e710 863f 5028 693f 973d 713f
00000070: 79c6 8b3f e33e 823f 99c6 723f 37f4 823f

generator.4.bias f4 [32]
-0.08724051 -0.07793067 -0.06821797 -0.16925868 -0.03462161 -0.05836653 -0.13785738 -0.07683353
-0.104155146 -0.112468235 0.048868403 -0.007901217 -0.1104256 -0.18722194 -0.16857858 -0.16766436
-0.07054493 -0.12836418 -0.077354476 -0.13666546 -0.07119918 -0.18138531 -0.18055704 -0.24708323
-0.18202448 -0.09906167 -0.07960011 -0.06653385 -0.15947838 -0.08611952 -0.14601688 -0.24305299
00000000: 27ab b2bd 1d9a 9fbd ddb5 8bbd 2652 2dbe
00000010: 64cf 0dbd be11 6fbd 7c2a 0dbe e65a 9dbd
00000020: 4b4f d5bd bf55 e6bd 3c2a 483d 1b74 01bc
00000030: d126 e2bd 1cb7 3fbe dd9f 2cbe 35b0 2bbe
00000040: dc79 90bd e671 03be 066c 9ebd 08f2 0bbe
00000050: e0d0 91bd 12bd 39be f2e3 38be 6303 7dbe
00000060: a064 3abe d8e0 cabd 6205 a3bd e642 88bd
00000070: 4d4e 23be 6e5f b0bd 7385 15be e2e2 78be

generator.4.running_mean f4 [32]
-0.6098395 -0.33582994 -0.65079534 -1.0138507 0.04918143 -1.033072 -0.86996496 -0.78040105
-0.5522811 -0.5605498 -0.2929698 -0.078863345 -0.99530154 -0.90523285 -1.105817 -0.5877076
0.053905785 -0.26352888 -0.7436208 -1.2249668 -0.90160114 -1.1493765 -0.9570095 -0.44120726
-1.3079243 -1.3107715 -0.5476094 -0.68199295 -0.68718594 -0.80346036 -1.1141733 -0.93876463
00000000: 711e 1cbf e7f1 abbe 869a 26bf dcc5 81bf
00000010: 7872 493d b43b 84bf 06b6 5ebf 5dc8 47bf
00000020: 4b62 0dbf 3180 0fbf 2300 96be 1b83 a1bd
00000030: 15cc 7ebf 57bd 67bf 698b 8dbf 0174 16bf
00000040: 50cc 5c3d 42ed 86be ef5d 3ebf b6cb 9cbf
00000050: 55cf 66bf c51e 93bf 93fe 74bf ebe5 e1be
00000060: 106a a7bf 5cc7 a7bf 2130 0cbf 1797 2ebf
00000070: 6beb 2fbf 94af 4dbf 3b9d 8ebf e152 70bf

generator.4.running_var f4 [32]
1.6300472 2.0002832 3.4216952 2.8138754 1.8307081 1.9105794 1.4133595 3.4771943
1.3584957 2.2576513 2.4265654 7.499753 2.0062258 2.305185 2.9319746 1.7644457
3.8447988 1.7967713 1.9874146 3.6216211 2.4620004 2.4110544 3.141417 1.4443685
3.037512 3.386028 1.8969349 2.6971657 1.5408963 1.8814372 1.9360514 1.7206082
00000000: 63a5 d03f a404 0040 0efd 5a40 8916 3440
00000010: a554 ea3f de8d f43f f7e8 b43f 5a8a 5e40
00000020: 30e3 ad3f 5c7d 1040 d94c 1b40 fafd ef40
00000030: 0166 0040 2788 1340 79a5 3b40 5bd9 e13f
00000040: 2f11 7640 9afc e53f 9a63 fe3f a4c8 6740
00000050: 6a91 1d40 b74e 1a40 fa0c 4940 11e1 b83f
00000060: 9966 4240 afb4 5840 c3ce f23f 5d9e 2c40
00000070: 173c c53f efd2 f03f 88d0 f73f e43c dc3f

generator.6.weight f4 [32, 16, 4, 4]
0.105208464 0.031265657 -0.09518646 0.06828459 0.08946081 0.017954305 0.038776647 -0.062202718
0.082872026 0.08945564 0.029106008 -0.057934113 0.05332188 0.030461555 0.07526889 -0.052457664
0.028339265 -0.06450986 0.010668707 0.091059685 -0.0073748934 -0.036405526 0.021685263 0.05336845
-0.12319105 -0.10038903 -0.0046171714 -0.115117595 -0.06895456 0.0025928945 0.11651439 0.0019048445
-0.027952664 0.023407932 0.05159076 0.014763185 0.0030525217 0.060110133 0.050660074 0.024367923
0.0009659157 -0.0015591856 0.07722149 -0.035704408 -0.017516682 -0.09151697 0.018973602 -0.060055256
0.005508455 -8.824511e-05 0.0028198515 -0.026548555 -0.09676126 0.047674417 0.038835164 0.0053027766
-0.034152985 0.0455363 0.06488564 -0.10139091 0.0010657138 -0.039025027 0.06827486 0.053387873
0.03532701 0.034140285 -0.023201171 -0.07557945 -0.0031955387 0.05636968 -0.038014263 -0.05350448
-0.0049443776 0.017018644 0.03577144 -0.0060636797 0.07938626 -0.0007728354 0.0343529 0.06920813
0.0373371 0.05196732 -0.002426684 -0.037623275 -0.023988672 0.05308288 -0.08709869 0.02173628
-0.016994277 -0.022882484 -0.03745512 -0.00229614 -0.09910593 -0.020371132 -0.083384976 0.016624624
-0.03979647 -0.106555186 0.04146694 0.08636635 -0.024439402 0.027459806 0.0078877 0.11781536
-0.09090335 0.011816351 0.04342996 0.014700622 0.051467318 -0.08762946 -0.035264634 -0.07659512
-0.030463848 0.034455627 0.109877765 0.05652828 -0.0047836998 -0.038657 -0.02212881 -0.009223932
0.0156180505 0.03951204 0.05992606 0.05997959 0.07385804 0.015393468 0.0013141833 0.047518097
-0.019181779 0.106902465 0.010674205 0.00030074114 0.028539028 0.005357672 -0.005556165 0.027313769
-0.10760265 -0.02370414 -0.077684104 -0.055263728 0.06937085 -0.05783624 -0.00041645346 -0.043238617
0.0012383119 0.012503235 -0.07193074 -0.021238388 0.0090302415 -0.07718594 -0.070193104 -0.07235323
-0.037493873 -0.0019208373 -0.0900981 0.02959832 -0.037078742 0.015845308 -0.05074074 -0.04812303
-0.117972806 -0.030111289 -0.009137713 -0.04348682 -0.050991632 -0.023023397 0.022937445 -0.040662244
-0.059457205 0.092308044 -0.023594014 -0.034898017 -0.013993608 0.03114006 0.045058656 -0.12039462
0.021635585 0.004633553 -0.061993156 -0.052079037 -0.020053804 0.013667355 -0.0062632984 -0.02853235
0.04689227 -0.0634137 -0.032058414 -0.084255815 0.051404875 0.03700771 -0.09420827 0.0053906334
-0.090001814 0.023500314 -0.05634506 0.025400676 0.040717516 0.031560507 -0.041927055 -0.04168218
0.06474051 0.030459689 -0.094945215 -0.1464503 -0.055914145 -0.030318022 -0.07314401 -0.0061090956
0.07891441 -0.004309235 0.0020361992 0.03651903 -0.042276174 -0.0553052 0.121707894 -0.07000177
-0.077797666 0.020610534 0.008845336 -0.035545517 0.019171866 -0.13813382 -0.05344062 -0.061276227
0.008764565 0.028286079 0.052451145 -0.013854545 0.041063946 0.010491492 -0.01846974 -0.07356474
-0.03403505 -0.01831094 0.112048745 -0.043590028 0.027327007 0.01820081 0.012528364 0.07254766
0.06461306 0.0167911 0.013325557 0.027487375 -0.02802503 -0.043926146 -0.051514946 0.08735874
0.012152984 -0.06749568 -0.010996859 -0.025330883 0.022996742 -0.05099961 -0.007831156 -0.013743637
00000000: 8977 d73d 6b10 003d 1ef1 c2bd cbd8 8b3d
00000010: 3b37 b73d e814 933c 43d4 1e3d 47c8 7ebd
00000020: cfb8 a93d 8534 b73d b96f ee3c 524c 6dbd
00000030: 0b68 5a3d 838a f93c 9326 9a3d d9dd 56bd
00000040: bf27 e83c bf1d 84bd cdcb 2e3c 807d ba3d
00000050: 17a9 f1bb f61d 15bd 4ba5 b13c e098 5a3d
00000060: 974b fcbd c498 cdbd a44b 97bb c6c2 ebbd
00000070: 0c38 8dbd 8ded 293b 199f ee3d faab f93a
00000080: fcfc e4bc fec1 bf3c d550 533d 49e1 713c
00000090: d10c 483b 0b36 763d f080 4f3d 3d9f c73c
000000a0: 8135 7d3a 965d ccba 4d26 9e3d c93e 12bd
000000b0: 257f 8fbc 406d bbbd 876e 9b3c 80fc 75bd
000000c0: 4580 b43b 3c10 b9b8 42cd 383b 5b7c d9bc
000000d0: c42a c6bd 4046 433d 9f11 1f3d eac2 ad3b
000000e0: 00e4 0bbd 4584 3a3d c3e2 843d 0aa6 cfbd
000000f0: 6caf 8b3a b5d8 1fbd b1d3 8b3d 3ead 5a3d
00000100: 0eb3 103d afd6 0b3d 6210 bebc 66c9 9abd
00000110: 3e6c 51bb e5e3 663d d8b4 1bbd 8327 5bbd
00000120: 7204 a2bb af6a 8b3c 1385 123d d5b1 c6bb
00000130: 4395 a23d 1b98 4aba a0b5 0c3d febc 8d3d
00000140: c9ee 183d afdb 543d 0009 1fbb dd1a 1abd
00000150: e483 c4bc 6f6d 593d cc60 b2bd 4810 b23c
00000160: 9537 8bbc 0c74 bbbc 8a6a 19bd d67a 16bb
00000170: 0df8 cabd 5ce1 a6bc bec5 aabd 5d30 883c
00000180: a001 23bd 9b39 dabd 3dd9 293d d7e0 b03d
00000190: 2435 c8bc 63f3 e03c 693b 013c 2e49 f13d
000001a0: 892b babd 5e99 413c 9de3 313d e1da 703c
000001b0: 65cf 523d 1377 b3bd a671 10bd e7dd 9cbd
000001c0: 528f f9bc 5821 0d3d 9807 e13d 338a 673d
000001d0: 95c0 9cbb cd56 1ebd 7a47 b5bc fa1f 17bc
000001e0: dae2 7f3c 60d7 213d 0775 753d 29ad 753d
000001f0: e242 973d e234 7c3c ad40 ac3a 56a2 423d
00000200: 1b23 9dbc aeef da3d dce2 2e3c cbac 9d39
00000210: aeca e93c 698f af3b 7d10 b6bb 20c1 df3c
00000220: c75e dcbd 2f2f c2bc d818 9fbd 385c 62bd
00000230: 4e12 8e3d b1e5 6cbd 7057 dab9 fa1a 31bd
00000240: da4e a23a 5eda 4c3c 6c50 93bd 21fc adbc
00000250: 94f3 133c aa13 9ebd 67c1 8fbd ee2d 94bd
00000260: 2d93 19bd 9bc4 fbba 5a85 b8bd 2d78 f23c
00000270: e1df 17bd 05ce 813c 86d5 4fbd a81c 45bd
00000280: ba9b f1bd f3ab f6bc 59b6 15bc 3c1f 32bd
00000290: 9adc 50bd 909b bcbc 4fe7 bb3c 748d 26bd
000002a0: 6689 73bd 000c bd3d 3c48 c1bc 39f1 0ebd
000002b0: 7245 65bc 7019 ff3c 6d8f 383d 7491 f6bd
000002c0: 1c3d b13c 0fd5 973b 89ec 7dbd d450 55bd
000002d0: e047 a4bc 0bed 5f3c 5b3c cdbb adbc e9bc
000002e0: 1c12 403d 0bdf 81bd af4f 03bd 508e acbd
000002f0: eb8d 523d 6695 173d 44f0 c0bd e9a3 b03b
00000300: df52 b8bd bb83 c03c 14ca 66bd 1415 d03c
00000310: 69c7 263d 9745 013d b4bb 2bbd efba 2abd
00000320: ac96 843d 9986 f93c a372 c2bd 11f7 15be
00000330: 3b06 65bd 805d f8bc 87cc 95bd cf2e c8bb
00000340: e19d a13d 7c34 8dbb c171 053b fa94 153d
00000350: c829 2dbd b587 62bd fd41 f93d 175d 8fbd
00000360: 6254 9fbd 6cd7 a83c 07ec 103c 2d98 11bd
00000370: 510e 9d3c f472 0dbe 8de4 5abd c8fc 7abd
00000380: 4099 0f3c 35b8 e73c 03d7 563d 2cfe 62bc
00000390: ab32 283d 82e4 2b3c da4d 97bc 1ca9 96bd
000003a0: 5668 0bbd d300 96bc d079 e53d 758b 32bd
000003b0: e3dc df3c dd19 953c c443 4d3c de93 943d
000003c0: da53 843d 7d8d 893c 7053 5a3c 342d e13c
000003d0: bf94 e5bc e7eb 33bd 5601 53bd 24e9 b23d
000003e0: 4f1d 473c 2d3b 8abd 2b2c 34bc b682 cfbc
000003f0: aa63 bc3c f8e4 50bd 404e 00bc fe2c 61bc

generator.6.bias f4 [16]
0.04441534 0.009148958 -0.013208813 -0.011702167 -0.020796355 -0.038361847 0.0075574713 0.016745739
-0.06939541 -0.041353274 0.011488489 0.04551769 -0.07826429 0.019731333 0.057291318 -0.014195965
00000000: dcec 353d 83e5 153c c769 58bc 72ba 3fbc
00000010: 1e5d aabc 5021 1dbd aaa4 f73b 5c2e 893c
00000020: 2e1f 8ebd 0d62 29bd 373a 3c3c c270 3a3d
00000030: 0749 a0bd 9ba3 a13c 4daa 6a3d 3196 68bc

generator.7.weight f4 [16]
0.79099303 0.89858913 1.1656265 0.9767251 0.9211599 0.93604743 0.9516248 0.9676525
0.8732069 0.9418775 1.1342759 1.083472 1.0660558 0.9896476 0.94730914 1.005637
00000000: 857e 4a3f f009 663f 4033 953f a80a 7a3f
00000010: 23d1 6b3f cea0 6f3f af9d 733f 13b8 773f
00000020: 7d8a 5f3f e21e 713f f42f 913f 36af 8a3f
00000030: 8474 883f 8c59 7d3f da82 723f b7b8 803f

generator.7.bias f4 [16]
-0.25431424 -0.33507633 -0.04374245 -0.26186135 -0.29753512 -0.17614244 -0.112562545 -0.27318516
-0.30918044 -0.19714952 -0.14115843 -0.14659469 -0.16731465 -0.24554329 -0.2643556 -0.24565227
00000000: 7a35 82be 208f abbe 492b 33bd b112 86be
00000010: 8656 98be af5e 34be 3187 e6bd edde 8bbe
00000020: e64c 9ebe 90e1 49be d68b 10be eb1c 16be
00000030: 8854 2bbe b36f 7bbe 9e59 87be 458c 7bbe

generator.7.running_mean f4 [16]
-0.18462007 -0.19629452 -0.08360664 -0.3106116 -0.18767017 -0.19451867 -0.079213284 -0.21534862
-0.277244 -0.22965254 -0.24555835 -0.15058218 -0.23482147 -0.18734375 -0.121007 -0.091576226
00000000: 0b0d 3dbe 6e01 49be f539 abbd 7c08 9fbe
00000010: 9c2c 40be e72f 47be 933a a2bd 5984 5cbe
00000020: edf2 8dbe 092a 6bbe a673 7bbe 3732 1abe
00000030: 0a75 70be 0ad7 3fbe 85d2 f7bd 518c bbbd

generator.7.running_var f4 [16]
0.20120111 0.1745418 0.21635811 0.173413 0.26060733 0.134282 0.16854538 0.14530648
0.16466288 0.16559419 0.1711172 0.13247131 0.1341743 0.11918189 0.14332038 0.15087733
00000000: aa07 4e3e 16bb 323e fb8c 5d3e 2d93 313e
00000010: 536e 853e 3881 093e 2997 2c3e 39cb 143e
00000020: 639d 283e 8691 293e 5939 2f3e 8fa6 073e
00000030: fd64 093e a215 f43d 94c2 123e 967f 1a3e

generator.9.weight f4 [16, 8, 4, 4]
-0.0055838646 0.05786644 -0.009234843 -0.069703676 -0.040828243 0.049292754 -0.0033931225 0.043222632
0.0047471626 0.09552833 -0.04391303 -0.0017524726 0.025112275 0.008201993 0.01986012 -0.00786551
-0.025275894 0.08779971 0.057361845 -0.02918205 0.0055562747 0.078478634 0.0882558 -0.030828208
-0.056518603 -0.013152189 0.074464984 -0.001121527 -0.07795507 0.03501863 -0.028740983 0.03599592
0.010345345 -0.08889432 0.016237007 -0.19532263 0.049856417 0.03755351 0.01132044 -0.02352081
0.041691277 -0.031669993 0.11976189 0.015504084 0.048490748 0.021416374 0.06518704 0.07393994
-0.0025670785 0.06951346 0.024984194 0.092211515 0.037899304 0.0034604222 0.090212084 0.035866626
-0.011009285 -0.009316334 0.06240938 0.014554388 -0.03498778 0.016557164 0.031624112 0.030678991
-0.022390628 0.051068466 -0.095303945 -0.020547176 -0.039643016 -0.021467954 -0.047590643 -0.012292683
-0.030301655 -0.08324701 0.01585626 -0.060616862 0.013665308 -0.011119042 0.013979798 0.01578518
0.024840863 -0.07108235 -0.028108364 0.005244642 0.015407797 -0.013163482 -0.0480975 0.025736718
-0.0005751677 0.0031404628 -0.0014182695 0.053259768 -0.026084295 0.026088018 -0.07808131 0.0261545
0.071792126 0.035997033 0.0556706 0.00039440786 0.031700063 0.07430376 0.0024415124 -0.0034952515
0.025417784 0.009409144 0.025420876 0.054082084 -0.026580686 0.012679653 0.018181559 -0.023609364
-0.062223945 -0.038396414 0.0014130565 -0.016084427 -0.10753919 -0.0073542804 -0.026256002 0.06245049
0.014926122 -0.036375523 0.04105163 0.071662575 -0.10653909 -1.5896869e-05 -0.011660156 -0.011509877
-0.12627813 0.06669545 -0.08482469 -0.02212158 -0.0890899 -0.023746239 0.0041326936 0.078169934
0.029189622 0.06243014 -0.049840555 0.019836321 0.041385856 0.059850186 0.013558491 -0.014939368
0.018605359 0.11561955 0.08627563 -0.02583526 0.02859522 0.021259567 0.08598768 0.00659967
-0.01623951 -0.034993697 0.040371116 -0.10673359 -0.042504486 -0.0027713752 0.05244894 -0.022497851
-0.05211296 -0.006780354 -0.04469887 -0.022806786 0.00030116685 0.013677893 0.055911016 0.026950106
0.033509526 -0.0155249955 -0.009181863 -0.057340093 -0.009424142 0.06547922 -0.015499315 0.061218437
-0.0302788 -0.13510026 -0.01895357 -0.033360556 -0.010659151 -0.11685108 0.08893554 0.068049714
-0.01532498 -0.06503441 0.022583496 -0.0078035416 -0.058541108 -0.037247006 0.086749695 0.055939123
0.006852046 0.02881188 0.014781602 -0.022036979 -0.08108509 -0.039821815 -0.051216356 -0.04622206
-0.061578874 -0.051897552 -0.04639738 -0.11188732 -0.030116495 0.040532853 -0.029168006 0.0059971884
-0.04997569 -0.08657344 -0.16367488 -0.008549147 -0.05313667 -0.102526955 -0.062417746 0.017936846
-0.08897708 -0.14591615 -0.03475413 0.09484673 -0.054804735 -0.030236365 -0.10682914 -0.08165086
0.053334486 -0.06443964 0.019491008 0.011792446 0.086805426 0.14660914 0.033435654 -0.010937827
0.030068936 -0.033024304 -0.0046489835 0.1062596 0.015044933 0.017346352 -0.007194422 -0.05926415
-0.121075846 -0.062400427 0.08603205 0.105891764 -0.078094475 -0.039446563 0.022527011 0.032367248
-0.13496357 -0.041457288 0.1244376 0.12114526 -0.0021782427 -0.06814021 -0.0059913797 0.06286749
00000000: daf8 b6bb 5c05 6d3d bd4d 17bc cdc0 8ebd
00000010: 843b 27bd 33e7 493d 265f 5ebb 370a 313d
00000020: 168e 9b3b 5ba4 c33d 26de 33bd 39b3 e5ba
00000030: 42b8 cd3c a761 063c b1b1 a23c 57de 00bc
00000040: 640f cfbc 56d0 b33d 41f4 6a3d 320f efbc
00000050: 6911 b63b 68b9 a03d 75bf b43d 708b fcbc
00000060: 0d80 67bd 477c 57bc 1981 983d 3400 93ba
00000070: e8a6 9fbd b26f 0f3d 3672 ebbc 7570 133d
00000080: 867f 293c 3a0e b6bd 7903 853c a802 48be
00000090: 3e36 4c3d b6d1 193d 5e79 393c b7ae c0bc
000000a0: 79c4 2a3d 65b8 01bd b945 f53d d704 7e3c
000000b0: 3c9e 463d 6471 af3c c880 853d d36d 973d
000000c0: 6e3c 28bb 135d 8e3d a7ab cc3c 64d9 bc3d
000000d0: 4d3c 1b3d 40c8 623b 1dc1 b83d e2e8 123d
000000e0: 4a60 34bc 89a3 18bc faa0 7f3d 8775 6e3c
000000f0: 594f 0fbd e4a2 873c 4988 013d 8252 fb3c
00000100: 8d6c b7bc 2b2d 513d b72e c3bd 8d52 a8bc
00000110: b760 22bd 90dd afbc 68ee 42bd 4067 49bc
00000120: 2d3b f8bc 697d aabd fde4 813c 6349 78bd
00000130: 75e4 5f3c a42c 36bc 860b 653c ec4f 813c
00000140: 117f cb3c a093 91bd 8343 e6bc 3fdb ab3b
00000150: fc70 7c3c a5ab 57bc e201 45bd cfd5 d23c
00000160: dac6 16ba 39d0 4d3b 3ae5 b9ba ea26 5a3d
00000170: bbae d5bc 8ab6 d53c 18e9 9fbd f641 d63c
00000180: c007 933d a071 133d db06 643d 87c8 ce39
00000190: edd7 013d 922c 983d c801 203b 9710 65bb
000001a0: f538 d03c cf28 1a3c 713f d03c 2d85 5d3d
000001b0: bdbf d9bc 52be 4f3c 7ef1 943c 6d68 c1bc
000001c0: 89de 7ebd 8f45 1dbd 4f36 b93a 7dc3 83bc
000001d0: 823d dcbd 2dfc f0bb d416 d7bc 16cc 7f3d
000001e0: b18c 743c 80fe 14bd c125 283d d4c3 923d
000001f0: 2b31 dabd 445a 85b7 3d0a 3fbc ec93 3cbc
00000200: 0e4f 01be a097 883d 91b8 adbd 5138 b5bc
00000210: c474 b6bd 7987 c2bc 8c6b 873b 8f17 a03d
00000220: 131f ef3c bfb6 7f3d 9c25 4cbd c87f a23c
00000230: 3784 293d 7825 753d 6f24 5e3c 40c4 74bc
00000240: 446a 983c f1c9 ec3d 47b1 b03d 78a4 d3bc
00000250: 8640 ea3c 8b28 ae3c 4f1a b03d 0b42 d83b
00000260: b908 85bc 8d55 0fbd 2f5c 253d 2497 dabd
00000270: 2f19 2ebd f69f 35bb b3d4 563d 6a4d b8bc
00000280: 6674 55bd bb2d debb 2a16 37bd 4cd5 babc
00000290: eee5 9d39 3e19 603c f302 653d 78c6 dc3c
000002a0: 4941 093d 8d5c 7ebc 866f 16bc 72dd 6abd
000002b0: b767 1abc f819 863d d7f0 7dbc 2fc0 7a3d
000002c0: 3f0b f8bc b957 0abe 8444 9bbc 14a5 08bd
000002d0: b8a3 2ebc 9e4f efbd d623 b63d a65d 8b3d
000002e0: a015 7bbc c330 85bd 0601 b93c dab4 ffbb
000002f0: cdc8 6fbd 5190 18bd d3a9 b13d 6c20 653d
00000300: 2187 e03b e406 ec3c 882e 723c e586 b4bc
00000310: f10f a6bd 331c 23bd 3ec8 51bd 5853 3dbd
00000320: 213a 7cbd 8792 54bd 2e0b 3ebd 2e25 e5bd
00000330: deb6 f6bc c705 263d bef1 eebc 1084 c43b
00000340: 4fb3 4cbd 6a4d b1bd 639a 27be b911 0cbc
00000350: d6a5 59bd a7f9 d1bd c0a9 7fbd 4bf0 923c
00000360: 9e39 b6bd 0b6b 15be 595a 0ebd 013f c23d
00000370: ee7a 60bd 41b2 f7bc 3cc9 dabd 9138 a7bd
00000380: 4375 5a3d eef8 83bd 9bab 9f3c 1a35 413c
00000390: 0bc7 b13d b520 163e d3f3 083d 9234 33bc
000003a0: 2153 f63c 7e44 07bd 8056 98bb a29e d93d
000003b0: 067f 763c f019 8e3c 30bf ebbb f7be 72bd
000003c0: 9df6 f7bd 9797 7fbd 9231 b03d c8dd d83d
000003d0: ffef 9fbd b892 21bd 918a b83c 8593 043d
000003e0: e433 0abe 1ecf 29bd 24d9 fe3d 021b f83d
000003f0: d9c0 0ebb 188d 8bbd 5653 c4bb acc0 803d

generator.9.bias f4 [8]
-0.039552484 0.0859702 0.012519299 -0.051214427 -0.07688273 0.03894772 -0.058066275 0.09145632
00000000: c901 22bd 2511 b03d bf1d 4d3c 38c6 51bd
00000010: b174 9dbd a587 1f3d e7d6 6dbd 734d bb3d

generator.10.weight f4 [8]
1.6172564 1.275995 1.5357366 1.2739466 1.3666155 1.2762555 1.5449474 1.2841452
00000000: 4202 cf3f ce53 a33f 0493 c43f af10 a33f
00000010: 42ed ae3f 575c a33f d6c0 c53f df5e a43f

generator.10.bias f4 [8]
0.54268354 0.14919603 0.42814663 0.10229102 -0.04509305 0.014826839 0.52313715 0.13296694
00000000: 4fed 0a3f d8c6 183e 0936 db3e f47d d13d
00000010: 7db3 38bd 45ec 723c 51ec 053f 7c28 083e

generator.10.running_mean f4 [8]
-0.002431159 0.0626238 0.06004356 -0.07187777 -0.20637453 -0.12996592 -0.020116305 0.040651027
00000000: 1454 1fbb e840 803d 3cf0 753d a734 93bd
00000010: d853 53be c915 05be f3ca a4bc b181 263d

generator.10.running_var f4 [8]
0.080197446 0.059007857 0.059420362 0.03470111 0.03204301 0.029177297 0.045669317 0.10779716
00000000: 8f3e a43d 39b2 713d c462 733d c022 0e3d
00000010: 883f 033d 3a05 ef3c c00f 3b3d c2c4 dc3d

generator.12.weight f4 [8, 1, 4, 4]
-0.07176753 -0.08473072 -0.13869 -0.19190653 -0.2295753 -0.5808453 -0.52988213 -0.30781505
-0.26528174 -0.55900854 -0.6089895 -0.41077682 -0.03196929 -0.22714972 -0.16870332 -0.20791678
-0.006986699 0.009533819 -0.09210915 0.03384431 -0.44576892 -0.48808357 -0.48363703 -0.20633608
-0.075082 -0.059970085 -0.18582205 0.033352878 -0.09444721 -0.0876844 -0.065960355 -0.124719046
0.003080763 -0.29738405 -0.16086565 -0.2698492 -0.17172158 -0.2077447 -0.4187453 -0.34782666
-0.2366786 -0.57629955 -0.39103532 -0.3247555 -0.14684288 -0.3322871 -0.36033347 -0.19443813
-0.26849973 -0.09575331 -0.32526258 0.0673623 -0.122545645 -0.3304078 -0.09989173 -0.003601007
-0.27918726 -0.15893893 -0.3701646 0.039231572 0.07779224 0.0031850117 0.15078437 0.06053574
0.020973468 -0.018077025 0.0974412 0.057812735 0.18124925 0.26532567 0.42396176 0.22812568
0.17647068 0.34594303 0.38206807 0.29358444 0.18243589 0.2079763 0.23471935 0.15793337
0.09350749 0.13708664 0.2183854 0.16075103 0.1785397 0.36056912 0.32854366 0.23790006
0.19341838 0.31863683 0.3473066 0.17723364 0.10577942 0.053053528 0.2200343 0.06617782
-0.17816575 -0.29831773 -0.22422846 -0.21754847 -0.32691437 -0.6116998 -0.36308107 -0.31530362
-0.21294813 -0.49926227 -0.37617698 -0.33956254 -0.1670108 -0.37801635 -0.15285024 -0.2253715
-0.06039335 -0.1107874 -0.12697516 0.06203496 -0.43200186 -0.027462205 -0.4877899 0.039470565
-0.153474 -0.33143726 -0.110209934 0.1381106 -0.23258398 0.14137666 -0.24735096 0.1456221
00000000: dbfa 92bd 4d87 adbd c004 0ebe 2583 44be
00000010: ca15 6bbe 47b2 14bf 5ba6 07bf ef99 9dbe
00000020: 02d3 87be 2f1b 0fbf bce6 1bbf 5751 d2be
00000030: 3bf2 02bd f099 68be 90c0 2cbe 23e8 54be
00000040: aef0 e4bb bc33 1c3c b9a3 bcbd 55a0 0a3d
00000050: d33b e4be 17e6 f9be 469f f7be c449 53be
00000060: 97c4 99bd 31a3 75bd 2348 3ebe 079d 083d
00000070: 8a6d c1bd e193 b3bd 3916 87bd b36c ffbd
00000080: a0e6 493b b942 98be f7b9 24be ad29 8abe
00000090: c8d7 2fbe 07bb 54be c965 d6be 5616 b2be
000000a0: e05b 72be 5e88 13bf c835 c8be 5a46 a6be
000000b0: fb5d 16be 8921 aabe a17d b8be ca1a 47be
000000c0: cc78 89be 501a c4bd d188 a6be 3ff5 893d
000000d0: 36f9 fabd 362b a9be 0994 ccbd dffe 6bbb
000000e0: a2f1 8ebe e3c0 22be 3786 bdbe 49b1 203d
000000f0: 8a51 9f3d a1bb 503b 3867 1a3e 53f4 773d
00000100: 8dd0 ab3c 4516 94bc 408f c73d 0ccd 6c3d
00000110: 6799 393e c4d8 873e 8411 d93e c799 693e
00000120: bbb4 343e 721f b13e 6d9e c33e b350 963e
00000130: 79d0 3a3e bdf7 543e 455a 703e 49b9 213e
00000140: db80 bf3d 7160 0c3e 6ca0 5f3e eb9b 243e
00000150: 1cd3 363e 849c b83e e036 a83e 139c 733e
00000160: 780f 463e 5e24 a33e 2cd2 b13e bc7c 353e
00000170: e1a2 d83d a84e 593d ac50 613e 3d88 873d
00000180: 1571 36be 1abd 98be 259c 65be 07c5 5ebe
00000190: 5261 a7be 5c98 1cbf c3e5 b9be 7a6f a1be
000001a0: 130f 5abe 4e9f ffbe 459a c0be 24db adbe
000001b0: e104 2bbe 5c8b c1be c684 1cbe c9c7 66be
000001c0: 045f 77bd 81e4 e2bd c705 02be 5f18 7e3d
000001d0: 592f ddbe 6bf8 e0bc 99bf f9be e3ab 213d
000001e0: 4a28 1dbe 25b2 a9be bfb5 e1bd dd6c 0d3e
000001f0: 7f2a 6ebe 0bc5 103e 9249 7dbe f61d 153e
